…
    "              loss=tf.keras.losses.SparseCategoricalCrossentropy(from_logits = True),\n",
    "              metrics=['accuracy'])"
   ]
  },
  {
   "cell_type": "code",
   "execution_count": 12,
   "metadata": {
    "id": "_ZGWN4MZGhtJ"
   },
   "outputs": [
    {
     "name": "stdout",
     "output_type": "stream",
     "text": [
      "Model: \"sequential\"\n",
      "_________________________________________________________________\n",
      " Layer (type)                Output Shape              Param #   \n",
      "=================================================================\n",
      " rescaling (Rescaling)       (None, 180, 180, 3)       0         \n",
      "                                                                 \n",
      " conv2d (Conv2D)             (None, 180, 180, 16)      448       \n",
      "                                                                 \n",
      " max_pooling2d (MaxPooling2D  (None, 90, 90, 16)       0         \n",
      " )                                                               \n",
      "                                                                 \n",
      " conv2d_1 (Conv2D)           (None, 90, 90, 32)        4640      \n",
      "                                                                 \n",
      " max_pooling2d_1 (MaxPooling  (None, 45, 45, 32)       0         \n",
      " 2D)                                                             \n",
      "                                                                 \n",
      " conv2d_2 (Conv2D)           (None, 45, 45, 64)        18496     \n",
      "                                                                 \n",
      " max_pooling2d_2 (MaxPooling  (None, 22, 22, 64)       0         \n",
      " 2D)                                                             \n",
      "                                                                 \n",
      " flatten (Flatten)           (None, 30976)             0         \n",
      "                                                                 \n",
      " dense (Dense)               (None, 128)               3965056   \n",
      "                                                                 \n",
      " dense_1 (Dense)             (None, 9)                 1161      \n",
      "                                                                 \n",
      "=================================================================\n",
      "Total params: 3,989,801\n",
      "Trainable params: 3,989,801\n",
      "Non-trainable params: 0\n",
      "_________________________________________________________________\n"
     ]
    }
   ],
   "source": [
    "# View the summary of all layers\n",
…
    "    lmodel.add(layers.Dense(num_classes, activation='softmax'))\n",
    "    return lmodel\n",
    "model4 = get_my_model_4()"
   ]
  },
  {
   "cell_type": "code",
   "execution_count": 60,
   "metadata": {},
   "outputs": [
    {
     "name": "stdout",
     "output_type": "stream",
     "text": [
      "Model: \"sequential_9\"\n",
      "_________________________________________________________________\n",
      " Layer (type)                Output Shape              Param #   \n",
      "=================================================================\n",
      " rescaling_8 (Rescaling)     (None, 180, 180, 3)       0         \n",
      "                                                                 \n",
      " conv2d_30 (Conv2D)          (None, 90, 90, 64)        15616     \n",
      "                                                                 \n",
      " leaky_re_lu_24 (LeakyReLU)  (None, 90, 90, 64)        0         \n",
      "                                                                 \n",
      " max_pooling2d_24 (MaxPoolin  (None, 45, 45, 64)       0         \n",
      " g2D)                                                            \n",
      "                                                                 \n",
      " conv2d_31 (Conv2D)          (None, 45, 45, 128)       401536    \n",
      "                                                                 \n",
      " leaky_re_lu_25 (LeakyReLU)  (None, 45, 45, 128)       0         \n",
      "                                                                 \n",
      " max_pooling2d_25 (MaxPoolin  (None, 22, 22, 128)      0         \n",
      " g2D)                                                            \n",
      "                                                                 \n",
      " dropout_24 (Dropout)        (None, 22, 22, 128)       0         \n",
      "                                                                 \n",
      " conv2d_32 (Conv2D)          (None, 22, 22, 256)       295168    \n",
      "                                                                 \n",
      " leaky_re_lu_26 (LeakyReLU)  (None, 22, 22, 256)       0         \n",
      "                                                                 \n",
      " conv2d_33 (Conv2D)          (None, 22, 22, 256)       590080    \n",
      "                                                                 \n",
      " leaky_re_lu_27 (LeakyReLU)  (None, 22, 22, 256)       0         \n",
      "                                                                 \n",
      " max_pooling2d_26 (MaxPoolin  (None, 11, 11, 256)      0         \n",
      " g2D)                                                            \n",
      "                                                                 \n",
      " dropout_25 (Dropout)        (None, 11, 11, 256)       0         \n",
      "                                                                 \n",
      " conv2d_34 (Conv2D)          (None, 11, 11, 512)       1180160   \n",
      "                                                                 \n",
      " leaky_re_lu_28 (LeakyReLU)  (None, 11, 11, 512)       0         \n",
      "                                                                 \n",
      " conv2d_35 (Conv2D)          (None, 11, 11, 512)       2359808   \n",
      "                                                                 \n",
      " leaky_re_lu_29 (LeakyReLU)  (None, 11, 11, 512)       0         \n",
      "                                                                 \n",
      " max_pooling2d_27 (MaxPoolin  (None, 5, 5, 512)        0         \n",
      " g2D)                                                            \n",
      "                                                                 \n",
      " dropout_26 (Dropout)        (None, 5, 5, 512)         0         \n",
      "                                                                 \n",
      " flatten_7 (Flatten)         (None, 12800)             0         \n",
      "                                                                 \n",
      " dropout_27 (Dropout)        (None, 12800)             0         \n",
      "                                                                 \n",
      " dense_17 (Dense)            (None, 2048)              26216448  \n",
      "                                                                 \n",
      " leaky_re_lu_30 (LeakyReLU)  (None, 2048)              0         \n",
      "                                                                 \n",
      " dropout_28 (Dropout)        (None, 2048)              0         \n",
      "                                                                 \n",
      " dense_18 (Dense)            (None, 1024)              2098176   \n",
      "                                                                 \n",
      " leaky_re_lu_31 (LeakyReLU)  (None, 1024)              0         \n",
      "                                                                 \n",
      " dropout_29 (Dropout)        (None, 1024)              0         \n",
      "                                                                 \n",
      " dense_19 (Dense)            (None, 9)                 9225      \n",
      "                                                                 \n",
      "=================================================================\n",
      "Total params: 33,166,217\n",
      "Trainable params: 33,166,217\n",
      "Non-trainable params: 0\n",
      "_________________________________________________________________\n"
     ]
    }
   ],
   "source": [
    "lr_schedule = keras.optimizers.schedules.ExponentialDecay(\n",
…
